models/pytorch_model_new.model (torch, 761708 bytes, 6 tensors)

layers.0.weight f4 [192, 784]
00000000: 9b86 543c b688 543c ba8a 543c 1d8b 543c
00000010: 3b62 553c d557 583c 149f 573c 8c5c 593c
00000020: 9438 563c cc32 553c d666 623c bf55 783c
00000030: ba58 6b3c 7979 643c e6bd 503c f331 4e3c
00000040: 8f43 4d3c 2da8 513c 6fb9 5b3c 5c45 543c
00000050: 79ac 563c f736 583c 4bf8 563c 9119 583c
00000060: 004b 553c d9b4 543c 4087 543c 9b86 543c
00000070: 8d87 543c de8a 543c c891 543c 1f38 553c
00000080: ae57 573c f47f 573c 1aca 533c effd 4b3c
00000090: 27f2 573c e19a 523c f93c 533c 96dc 233c
000000a0: 8a06 403c 8487 3b3c 5f5e 023c 1a53 2c3c
000000b0: 36ad 303c d890 273c ad60 3f3c a4a2 573c
000000c0: 5b7e 4a3c 80b6 563c c772 543c 2099 563c
000000d0: 9e4e 573c 9198 543c 7e83 543c 9a87 543c
000000e0: 718e 543c f799 543c 2824 553c 4040 553c
000000f0: 998d 573c 343d 523c 2ef0 383c 0a21 3e3c
00000100: 129d 533c 26e8 0e3c dc32 d63b ea56 cd3b
00000110: bb49 a43b 5059 3a3b a5f4 553b 61b6 a33b
00000120: 7e4c a23b c3ef b83b 22cd d93b 556e 203c
00000130: 6605 313c 4498 3a3c a21d 473c 6c52 533c
00000140: 9598 573c 3383 543c 3ebc 543c 9e86 543c
00000150: 2c91 543c 7ebf 543c 9a68 543c 49b0 553c
00000160: fe64 593c 6022 303c d8ed f93b 2fb1 f63b
00000170: d88e a03b e957 b03a 3c97 313b 61b9 383b
00000180: 8246 4b3b f631 8839 c6ca fa3a c891 2f3b
00000190: e8e2 a53a be5c 033b dd0e 0f3b 3dd1 3e3b
000001a0: cbad 993b 41df a93b b914 223c 001d 253c
000001b0: 6296 553c d5ce 553c bc9e 543c acc3 543c
000001c0: 2d8b 543c f84b 543c 96d9 533c 1df1 573c
000001d0: b004 513c 2226 e53b 4db6 0a3c f34f ac3b
000001e0: 0801 5f3b 1475 003b d7f6 4e3b c82c 593b
000001f0: d4d0 003b 5063 d13a e72e 083b a639 493b
00000200: 3bc9 553b 3d51 983a d247 a23a f05c 383b
00000210: 85a5 9f3b 9943 843b 1f75 b03b 631a 203c
00000220: 3313 463c 8158 553c 8714 553c 925d 543c
00000230: c977 543c e85b 533c 634e 533c 2ee0 593c
00000240: d302 223c e8b3 a93a 0b50 103a c3ba 7e3a
00000250: bab4 8639 ed03 88ba e94e a5b9 aa25 97b9
00000260: 5eb1 2c39 b48a 4bba 6b58 51ba d0d8 4139
00000270: d2d0 163a e697 b9ba a5de 67bb 0090 95ba
00000280: 219d e638 fa31 643a f590 d4ba 66c0 b33b
00000290: 2f63 9e3b d0aa db3b a476 3b3c 1dc3 543c
000002a0: 199f 543c 545d 533c 35fc 513c 3f1a 5b3c
000002b0: a474 813b fdd9 9739 a7bf 49bb 326e 67bb
000002c0: 2898 8dbb e069 9abb c50c 97bb 9043 d1bb
000002d0: f2d1 49bb 60b1 85bb 32b8 96bb fc0b 43bb
000002e0: cd2b 82bb 1fc1 9ebb 29df bcbb 5e77 adbb
000002f0: 6ab6 8fbb 18ef 3fbb 3406 9bbb 0b6f 2e3b
00000300: 035a 713b 63b2 4e3b bf92 4c3b f233 4a3c
00000310: 7dbb 543c 5d96 543c 944b 543c 2b54 5b3c
00000320: 515e 883b 8a96 cb38 d0e5 6abb 7e1f eaba
00000330: 1687 2fbb 25c2 5dbb eaeb 7fbb 3132 7abb
00000340: f36b 14bb ecab 37bb 7f69 24bb f448 ecba
00000350: 630b 34bb 5cd6 31bb 2c8a 30bb cd72 74bb
00000360: 4067 31bb 8fe4 0fbb 9e11 25bb 2bab 493b
00000370: cace 853b 406e 883b 0b2a 923b 7dfa 0c3c
00000380: 7ecd 543c c257 d13b b35d da3b d50b ed3b
00000390: d354 b73b 0229 61ba 62b1 5fbb 41b9 f3ba
000003a0: b1b3 62bb 9a34 a6bb a05e 75bb 218e 4fbb
000003b0: 506b 00bb 2a5a 24bb cdf0 1cbb ea1c 25bb
000003c0: d078 5bbb d389 3dbb abd4 2dbb fb0c 67bb
000003d0: d482 a6bb 5fb8 2dbb 1148 15bb 1943 a93a
000003e0: c6e4 693b 7875 7a3b ae51 943b 3130 053c
000003f0: 6669 533c abc9 fe3b 6ada e03b 0d75 cc3b
0.012971546 0.012972048 0.012972528 0.01297262 0.013023908 0.013204535 0.013160486 0.013266694
0.013075013 0.013012599 0.013818463 0.015157162 0.014364416 0.013944977 0.012740588 0.012585151
0.012528314 0.012796444 0.01341091 0.01295599 0.013102644 0.013196698 0.013120721 0.013189689
0.01301837 0.012982571 0.012971699 0.012971546 0.012971771 0.012972562 0.01297421 0.013013869
0.013143463 0.013153065 0.012926603 0.012450679 0.013180292 0.012854309 0.012892955 0.010001322
0.011720309 0.011445884 0.00795707 0.01051786 0.010783484 0.010227405 0.011680764 0.013161335
0.012359227 0.013105035 0.012966818 0.013098031 0.013141302 0.012975828 0.012970803 0.012971783
0.012973414 0.012976161 0.013009109 0.013015807 0.013156318 0.012831975 0.011287732 0.011604557
0.012915866 0.008722341 0.0065368246 0.0062664645 0.005013672 0.0028434582 0.003264704 0.0049961065
0.0049529662 0.005643816 0.006646768 0.00979193 0.01080451 0.011388842 0.012153061 0.012898069
0.013158937 0.012970733 0.012984334 0.012971548 0.012974065 0.012985108 0.012964392 0.013042518
0.013268707 0.010750383 0.00762723 0.007528446 0.004899841 0.0013453934 0.00270982 0.0028186666
0.0031017368 0.00025977165 0.0019133918 0.0026789773 0.0012656124 0.0020044292 0.0021828928 0.0029116415
0.004689907 0.0051840846 0.009892636 0.010077715 0.013036342 0.013049801 0.012977298 0.012986105
0.012972635 0.0129575655 0.0129302945 0.0131800445 0.012757465 0.006993071 0.008466315 0.005258554
0.0034027714 0.0019601034 0.0031580233 0.0033138264 0.0019655721 0.0015975032 0.002077991 0.0030704527
0.0032621163 0.001162089 0.0012381023 0.0028131567 0.0048720264 0.0040363786 0.0053850557 0.009771916
0.012089538 0.013021589 0.013005382 0.012961762 0.012968012 0.01290033 0.012897107 0.0132980775
0.009888369 0.0012947293 0.00055050914 0.0009717161 0.00025693123 -0.0010377147 -0.00031530045 -0.00028829026
0.00016469273 -0.0007764504 -0.00079858926 0.00018486683 0.00057531625 -0.0014159649 -0.003538051 -0.0011410713
0.00010996522 0.0008704957 -0.0016217517 0.005485582 0.004833601 0.006703712 0.01144186 0.012985972
0.012977385 0.012900669 0.0128164785 0.013372957 0.003950672 0.00028963378 -0.00307844 -0.0035313484
-0.004321117 -0.0047123283 -0.0046096765 -0.006386228 -0.0030795303 -0.0040799826 -0.0045995945 -0.0029761782
-0.0039725066 -0.004844799 -0.0057639075 -0.0052937707 -0.004385759 -0.0029286798 -0.004730964 0.002661648
0.0036827333 0.0031539432 0.0031215397 0.012341486 0.012984154 0.0129753025 0.012957472 0.013386766
0.004161634 9.7078344e-05 -0.0035842545 -0.0017862169 -0.0026783398 -0.0033837643 -0.0039050528 -0.003817689
-0.002264735 -0.0028026057 -0.0025087295 -0.0018027113 -0.0027472607 -0.0027135825 -0.0026937826 -0.0037299872
-0.0027069598 -0.00219563 -0.0025187503 0.003077219 0.004083489 0.0041635334 0.0044605783 0.008604643
0.012988446 0.0063886354 0.006664002 0.0072340765 0.0055948286 -0.00085891795 -0.0034132828 -0.0018594639
-0.0034591968 -0.0050721886 -0.0037440434 -0.0031670409 -0.0019595213 -0.0025078156 -0.002394724 -0.0025194236
-0.0033488758 -0.002892126 -0.0026524465 -0.003525554 -0.005081514 -0.0026507599 -0.002277855 0.0012913673
0.0035689338 0.003821699 0.0045263385 0.0081291655 0.012903547 0.0077755055 0.0068619745 0.0062395395

layers.0.bias f4 [192]
00000000: 8f86 54bc 80b3 adb9 f22d 08bd 4906 a5bc
00000010: 323e babc d401 f63c 1a97 88bc f18d a1bb
00000020: 373e 003c e609 08ba 62cb 60bc fc49 72bb
00000030: 86ec 26bc e0c7 6bbb d41f d4bc d928 bbbb
00000040: 4f8d edb8 87f5 53ba bc07 5bba 1dd6 59bb
00000050: fc79 f9bc 7345 91bc 77d1 0cba 8e9c 58bb
00000060: 3e44 af3a 61ff c7bc 01e4 a6b9 a45c 82bc
00000070: fa68 c2bc bc75 213c 274f 23b9 1090 153c
00000080: cf5f dbbc 3d04 4c3d bfaf 87bc 4a73 e8ba
00000090: 2dec 3ebc 9010 05bc 2b8f 46bd ac77 afbc
000000a0: e7d0 d6ba eaef c1bc a70c 14bd 035d 3fbc
000000b0: 1620 20bb 0919 66bc c00c 2ebb e14a 00bc
000000c0: 94c9 7bb9 70ef bbbb 92f0 f8ba ac0a 73b8
000000d0: 3064 3c3a 3965 acb9 3a67 a1bb 9915 243c
000000e0: ea3d 23ba 4976 3fbb 7516 5ebb 54ed bbba
000000f0: 6562 85ba 36ea 8dba 5adb d6bb 4993 e9bc
00000100: f093 a93b 8321 15bd 567a 5abc bb8d 86ba
00000110: a14b 21bc 0d2a 2dbb 1d48 c0bb 3ad9 1bbc
00000120: e20c 3f3c 86f3 bcbc 6898 8438 f972 043b
00000130: 4eea b2bb 98b7 39bc d88e e4bc f7ba edb8
00000140: 5b95 b3bc ca60 28ba 91f5 a8bc 8ee3 2fbc
00000150: 8ae3 22bb cfa1 a2bb 5e1b 09bc 7740 ceba
00000160: fff7 19bc 713b e2bb 14c0 68ba 6002 a439
00000170: 2e17 88b8 941b 14bb 4c77 ffba 12ae 203d
00000180: e9a1 aebb 0c03 55ba 3a1d b9bb bd5b bcbb
00000190: 4897 e9ba 8b36 09bb 5eb9 c3b9 60d1 21bd
000001a0: b4f3 bcbb 69ec 72bb 708e 96ba 98fe 8fbb
000001b0: dd26 4cbb 0cfc 99bc 8f56 babc 04c0 1dba
000001c0: f5f3 daba c268 0bbb c5a0 c5bb 5b99 61bc
000001d0: aa67 26b9 2f35 7cba 48e5 bdbc 1589 33bc
000001e0: 384d bc3c e4cb 84bc 87d4 3fbb 26b2 fd3c
000001f0: 3536 a5bb fa8f b3bc 246c 0abb 443d 67bd
00000200: 111c 1abd 5f8c dbbc 0d32 42bb 57f1 c9bc
00000210: ab42 af3c 0e0a 37bb ceed 10ba 3505 00bc
00000220: c795 c7bc 3da3 cdba abd0 2dba 70a1 cdb6
00000230: 70df 88b8 d569 0aba 37d2 8cbb 8471 93bc
00000240: f519 acbb f5bd e2bb 1a6a 84bb a719 c5ba
00000250: 644a 1fbb e084 a0bb 7d2a 1bbc 8771 0abb
00000260: da21 eab9 fd66 27bd 76ad 53bc 18ee 17bb
00000270: b8da 8cbb e2c6 6dbc beae 01bc f608 c8ba
00000280: 0eb5 9db9 86c3 33ba 843a 55bb be7d 72bc
00000290: cab8 19bc 7a0c a4b9 ad97 d7b9 7234 06bb
000002a0: 07ed 46bc c2ff bcbc 9258 adba eff2 83bc
000002b0: ed04 deb9 3f93 dabc 615e 0cbc 0eaf f4bb
000002c0: 2306 b73b 0ee8 1abb 9b64 38bc 0bbf dcbc
000002d0: 639a 17bb 2cce 38bc f9a9 52bd 21e4 04bc
000002e0: 549c 8ab9 f616 bebb c769 4fbc 5591 deba
000002f0: bc81 bcb9 fd41 423c 981b c8ba 3645 12bc
-0.012971534 -0.0003313087 -0.033246942 -0.020144599 -0.022734735 0.030030169 -0.016673613 -0.004930251
0.007827333 -0.0005189463 -0.013720365 -0.0036970368 -0.0101882275 -0.003597729 -0.025894083 -0.0057116565
-0.000113273614 -0.00080855977 -0.00083553395 -0.0033239194 -0.030453674 -0.017733311 -0.0005371789 -0.0033052298
0.0013371778 -0.024413766 -0.00031831863 -0.015913315 -0.023731697 0.00985473 -0.00015574378 0.009128585
-0.026779084 0.04980873 -0.016563294 -0.0017734554 -0.011652988 -0.008121625 -0.04847638 -0.021419369
-0.0016389162 -0.02367397 -0.03614488 -0.011679891 -0.0024433187 -0.014044055 -0.0026557893 -0.0078303525
-0.00024012319 -0.0057353303 -0.0018992594 -5.7945654e-05 0.000718656 -0.00032881813 -0.0049256356 0.010014915
-0.00062271825 -0.002921479 -0.0033887897 -0.0014337697 -0.0010176419 -0.0010827247 -0.0065569105 -0.028512614
0.005175106 -0.036408912 -0.013334831 -0.0010265628 -0.0098446915 -0.002642277 -0.0058679716 -0.00951224
0.011660786 -0.02306534 6.3226384e-05 0.002021013 -0.00546006 -0.011335276 -0.027900144 -0.000113358656
-0.021921804 -0.0006423114 -0.020624908 -0.010735406 -0.0024854862 -0.0049631367 -0.008368341 -0.0015735765
-0.009397506 -0.0069040586 -0.00088787195 0.00031282287 -6.489303e-05 -0.0022599446 -0.0019490509 0.039228506
-0.00532936 -0.0008125759 -0.005649236 -0.0057482407 -0.0017821575 -0.002093705 -0.00037331408 -0.039506316
-0.0057663564 -0.003706718 -0.0011486541 -0.0043943636 -0.0031151094 -0.018796943 -0.022746352 -0.0006017687
-0.0016704785 -0.0021272157 -0.006031128 -0.013769473 -0.00015869612 -0.0009620962 -0.023180619 -0.010957976
0.02298604 -0.016210504 -0.0029270963 0.030968737 -0.0050418624 -0.02191924 -0.0021121586 -0.05645491
-0.037624422 -0.026800333 -0.0029631883 -0.024651213 0.021394094 -0.0027929577 -0.00055286 -0.007813741
-0.024363412 -0.0015688908 -0.000663052 -6.12827e-06 -6.526604e-05 -0.00052800524 -0.0042975205 -0.017998464
-0.0052521178 -0.0069196173 -0.0040409686 -0.0015037552 -0.0024305815 -0.0048986524 -0.009470579 -0.0021124796
-0.0004465718 -0.0408697 -0.012919774 -0.0023182686 -0.0042985342 -0.014512749 -0.007915197 -0.001526146
-0.0003008027 -0.00068574434 -0.0032536099 -0.014800487 -0.009382436 -0.00031289813 -0.00041121003 -0.0020478037
-0.012141473 -0.023071174 -0.0013225249 -0.01610705 -0.0004234681 -0.02668154 -0.008567424 -0.007467157
0.0055854484 -0.002363685 -0.011254455 -0.026946565 -0.0023132793 -0.011279624 -0.05143163 -0.008111031
-0.00026437885 -0.005801077 -0.012659497 -0.0016980568 -0.00035954814 0.011856553 -0.0015267013 -0.008927634

layers.3.weight f4 [192, 192]
00000000: 4c36 062e dc82 4cb4 410d 8137 bfaa 67b7
00000010: b3d0 1bb6 261e 1ab7 4ac8 2db1 00dd 49b5
00000020: 12ce 73b5 65f6 c72b a3bb ebb2 c037 9f34
00000030: e2a9 3ab6 79c7 b8a7 e210 15b8 16aa 83b4
00000040: 142d 739d d25b 67b0 f65b 0235 1e04 c2b2
00000050: 8219 85b6 bce9 7c36 4af1 aaaf a2ff 5b27
00000060: 13bb 29b5 e8f6 0cb3 247c 95b2 b6f9 7bb7
00000070: 550d 64b6 9e65 75b5 8c4d 4328 419a deb6
00000080: 64ec 1836 258e a5b3 95c1 9bb6 1aa1 e1b5
00000090: a985 cdb4 c34d 07b3 6a8d e7b6 f226 2eb5
000000a0: fbf4 22b5 829d 4fb2 086d 98b6 2d4d e6b6
000000b0: c5a5 af2e f271 5433 243b 9834 16df 1333
000000c0: a69d 4e2e bc5d ffb1 3ca9 0333 2026 8ea6
000000d0: 8490 ddb2 424b d530 b5bc 75b6 edf0 2db6
000000e0: 13be 23ae 3dee 6234 9fa6 4c34 7edb 86b3
000000f0: cd1f 0230 6189 e6b2 5a5d 24b4 7c21 9430
00000100: da40 52b5 4b1b 37b4 c33b 76ab 76a8 da33
00000110: 8311 0aac adff 742e 4135 e6b5 48fd 522c
00000120: 6d87 84b6 5a8b 2caf 9f9d 7a2d 4c1e 76b6
00000130: 8edb 3db0 7ef1 1331 07ef c1b4 593a 672b
00000140: 4564 3037 91ec 2135 1995 0336 9b4c b6b2
00000150: b040 65b2 62e4 71b3 de03 f3b6 d106 a3af
00000160: 1cf1 0bb7 2078 c1b3 582c 9932 3ba2 deb5
00000170: c707 3ab3 beaf 15ae 96d7 9635 7d78 20b7
00000180: c774 8fb3 189e 5d2f 604f 1333 2e3d 18b0
00000190: a7b3 b3a9 7c68 45b3 eaa9 62b4 8681 7ab7
000001a0: a020 dd36 0c82 362d ef37 67af 9a85 8db1
000001b0: 030b fdb1 010e 03b7 9598 9cb4 d4af 1cb3
000001c0: 882f 8db2 1a0f 49b3 f4c0 43b2 a7c3 40b6
000001d0: 62b4 0d2c c596 29b4 65d6 99b4 b4e2 8a33
000001e0: be1d 2937 88d1 8435 9a08 24b7 47f4 9cb7
000001f0: 9e90 06b7 ed4a b335 3412 b9b3 eba6 b6b2
00000200: 3d35 53b2 79f9 59b6 726f 5bb1 090d 76b6
00000210: ca37 56b7 d52b 8d2a 28e9 e5ad 49bc 25b4
00000220: 7909 4235 4742 c8b2 8fc4 d7b1 6ac7 ef88
00000230: e152 1635 cde9 b1b3 d523 40ad 1571 dd37
00000240: 0d49 122d 7c57 84b4 7cf0 d732 765c 0234
00000250: 17cc 0536 bf4e 08b6 22c3 c735 fba8 d834
00000260: 0fcf 3d2a 8f87 44b7 b2f9 70b7 e6b3 5234
00000270: dac9 1134 5294 b6b5 9e13 c636 856a 03b5
00000280: 28c0 01af 94bd 07ad bce7 96b6 846a 8930
00000290: 25b9 fbb6 8d78 9630 1379 1529 883a fb32
000002a0: e9ae 1bb6 5aa3 da2f beea c835 2c26 8ab6
000002b0: 33b1 9dab 3abe d3b4 ed12 8f33 01c1 0eb6
000002c0: 088a 31b7 2342 aab3 ca94 9f32 ee7d 4bb6
000002d0: 7df1 e6ac 1a16 f0b6 17e7 80b5 0ec2 aa31
000002e0: f946 c831 3cdc 08b7 d32a 9eb4 2eb0 25b6
000002f0: 771e 04b0 2bc5 cb34 aeab 72b1 d36e b9b3
00000300: 58c2 de2e bbdc 1fb3 f4fc 2cb5 7ddd a9b4
00000310: 5807 45b5 c315 17b6 5d20 a035 3e66 baaf
00000320: 448f 32b6 d8f6 152e 6250 96b3 441c 5eb3
00000330: 8021 f030 9492 4dad ee6e 1735 50e2 0a33
00000340: cb65 dda4 7109 20b3 604b b332 2e8c 0433
00000350: 2b41 1bb5 ab29 2b33 1226 5a30 6fd5 2db3
00000360: c622 0f31 778e bdb2 79c9 4ab1 e431 b3b4
00000370: 3cf6 8bb5 b6a0 1bb3 7b7e 812f e6ca c2b5
00000380: f7e6 fab4 c2f6 8fb5 6b01 1bb6 711f b8b4
00000390: 1b03 cc35 2c21 9631 3606 0b34 d8ca 7c30
000003a0: 0829 3636 7134 2034 d5ac 84b5 1baa 99b2
000003b0: c07c 79ae 21c8 1bb5 cc67 deb5 0062 8fae
000003c0: b36f 862f a403 04b2 1d44 8f32 574c 5da7
000003d0: 7a1e 4832 1395 92b3 d623 4fb2 8c7d e732
000003e0: 8a4b 4028 a108 9bb0 20fe c2b2 aaeb 71b3
000003f0: 3851 fb32 5e34 abad b56b 12b3 5e3d 3535
3.0516298e-11 -1.9046587e-07 1.538417e-05 -1.3808428e-05 -2.3218279e-06 -9.186135e-06 -2.5288664e-09 -7.519993e-07
-9.0824426e-07 1.4208189e-12 -2.7442928e-08 2.965662e-07 -2.7815045e-06 -5.1286528e-15 -3.554009e-05 -2.4524405e-07
-3.2184087e-21 -8.4167795e-10 4.8562595e-07 -2.2586445e-08 -3.9666784e-06 3.7686978e-06 -3.1094266e-10 3.0530934e-15
-6.3229635e-07 -3.282085e-08 -1.7402336e-08 -1.5018906e-05 -3.3982408e-06 -9.1417485e-07 1.084149e-14 -6.634073e-06
2.2787362e-06 -7.709267e-08 -4.641896e-06 -1.6810693e-06 -3.8281476e-07 -3.150286e-08 -6.9007992e-06 -6.4876724e-07
-6.0706196e-07 -1.2084799e-08 -4.542646e-06 -6.8635186e-06 7.987525e-11 4.946373e-08 2.8355237e-07 3.4429e-08
4.6978997e-11 -7.432133e-09 3.0654732e-08 -9.863563e-16 -2.5793504e-08 1.5519179e-09 -3.6617687e-06 -2.5919246e-06
-3.723073e-11 2.1134561e-07 1.9059597e-07 -6.279787e-08 4.7338916e-10 -2.6837997e-08 -1.5307651e-07 1.0777934e-09
-7.832547e-07 -1.7053132e-07 -8.747969e-13 1.0182059e-07 -1.96207e-12 5.5706263e-11 -1.7151834e-06 2.9983394e-12
-3.949672e-06 -1.5692816e-10 1.4245854e-11 -3.6674492e-06 -6.9069805e-10 2.1528588e-09 -3.6122967e-07 8.214866e-13
1.0513763e-05 6.0321423e-07 1.9607307e-06 -2.1222425e-08 -1.3344263e-08 -5.6319898e-08 -7.2424145e-06 -2.965437e-10
-8.341183e-06 -9.0091135e-08 1.783171e-08 -1.6587504e-06 -4.3313573e-08 -3.4034768e-11 1.1238615e-06 -9.5647965e-06
-6.680198e-08 2.0155999e-10 3.4298296e-08 -5.538422e-10 -7.9803616e-14 -4.5962665e-08 -2.1109705e-07 -1.4931318e-05
6.5901113e-06 1.03743784e-11 -2.1029199e-10 -4.118829e-09 -7.364521e-09 -7.811469e-06 -2.9168282e-07 -3.6481495e-08
-1.6436175e-08 -4.6812694e-08 -1.1394366e-08 -2.8724114e-06 2.0137438e-12 -1.5794201e-07 -2.8654463e-07 6.467363e-08
1.008011e-05 9.895748e-07 -9.777164e-06 -1.87104e-05 -8.020694e-06 1.3358346e-06 -8.618045e-08 -2.1263494e-08
-1.2293921e-08 -3.2480732e-06 -3.1932044e-09 -3.6664444e-06 -1.2768383e-05 2.5077046e-13 -2.6137828e-11 -1.543532e-07
7.2284416e-07 -2.3313204e-08 -6.2796697e-09 -1.4431171e-33 5.599996e-07 -8.284733e-08 -1.0921893e-11 2.6397911e-05
8.31536e-12 -2.465057e-07 2.5138654e-08 1.214083e-07 1.993734e-06 -2.0311415e-06 1.4883447e-06 4.0356085e-07
1.685841e-13 -1.1714073e-05 -1.43632515e-05 1.9623221e-07 1.357761e-07 -1.3603224e-06 5.9031436e-06 -4.895631e-07
-1.1800749e-10 -7.715956e-12 -4.497326e-06 9.998335e-10 -7.5019366e-06 1.0948199e-09 3.318966e-14 2.9246863e-08
-2.319861e-06 3.9770037e-10 1.496948e-06 -4.1171643e-06 -1.1204704e-12 -3.944022e-07 6.662399e-08 -2.1271992e-06
-1.058216e-05 -7.928272e-08 1.8577698e-08 -3.0322658e-06 -6.5638038e-12 -7.1551303e-06 -9.603999e-07 4.9697126e-09
5.8288347e-09 -8.157509e-06 -2.9460952e-07 -2.4689466e-06 -4.8064613e-10 3.7955155e-07 -3.5313223e-09 -8.6348926e-08
1.01299136e-10 -3.7220826e-08 -6.444309e-07 -3.1639857e-07 -7.3398905e-07 -2.251342e-06 1.1930348e-06 -3.390585e-10
-2.6607458e-06 3.409792e-11 -6.999541e-08 -5.171411e-08 1.747182e-09 -1.1685448e-11 5.641331e-07 3.233646e-08
-9.6015916e-17 -3.726149e-08 2.087262e-08 3.0861138e-08 -5.783683e-07 3.9851937e-08 7.936204e-10 -4.0473818e-08
2.0829005e-09 -2.2067281e-08 -2.9509393e-09 -3.3377648e-07 -1.0427971e-06 -3.6234916e-08 2.3554833e-10 -1.4513178e-06
-4.6734178e-07 -1.0726146e-06 -2.3097625e-06 -3.4295547e-07 1.5200088e-06 4.3693458e-09 1.2947643e-07 9.1965324e-10
2.7143997e-06 1.4920239e-07 -9.885067e-07 -1.78889e-08 -5.6726845e-11 -5.8033226e-07 -1.6570498e-06 -6.5202954e-11
2.4453825e-10 -7.684239e-09 1.6678365e-08 -3.0711295e-15 1.1648462e-08 -6.825771e-08 -1.2057134e-08 2.6949031e-08
1.0674521e-14 -1.1280187e-09 -2.2700135e-08 -5.632652e-08 2.925718e-08 -1.9463705e-11 -3.4091233e-08 6.7517055e-07

layers.3.bias f4 [192]
00000000: e3fa ba35 1bfb 3bb5 9f23 1cbb 42dd e437
00000010: 60d5 9ab9 173d 053b ec12 e430 f294 6c3c
00000020: e473 313a cb72 1b35 7452 243c d58f 9cba
00000030: 7d1d 66b8 ecdc 8dbd b08a d934 b05b 28b9
00000040: 8782 86bb d712 91b9 c496 92b8 deee c239
00000050: 951b 83b7 0085 48b6 cae5 57ba 9005 643a
00000060: 40cc 34bc be0e 64ba e247 2e35 48a4 f0bc
00000070: 7a84 acba bcfa 0c3a 5eef 16b9 f62a 4eb8
00000080: 6914 0dba 2aa7 25bb 1ca7 1abc 68af 6dba
00000090: b88f b93c 1236 b237 ab4f 3335 9b21 04ba
000000a0: 302a bdba 7f71 f13b 1a24 cdba 50af 858d
000000b0: 78da 8cba 518b c03b 9395 2a3d f56c 03b6
000000c0: d87c 6d37 d547 5639 3660 2b3c 51a9 933a
000000d0: 5e1a 3d3c ee40 333d cf04 a63d 9346 fa38
000000e0: 6ccf 1f34 815d 4835 8593 00bd 9bef 5fb9
000000f0: 9683 0a39 69fb 0db8 09de 4aba 5adb d6ba
00000100: bc05 7632 b277 9d3d bb60 28ab c084 91b8
00000110: da0a 033d 823a d1bb 697f feba 52db 75bc
00000120: a5ff ccba ad9a 2037 e001 e638 0a0c 233a
00000130: 998f 82bc dfd4 80b9 3a03 8dbc 651d 8dbb
00000140: f271 5bb3 ac15 0633 4153 313b 1e2e 36bb
00000150: f8a7 77b8 d2dc 90b8 a66f b1b2 54d0 30b8
00000160: e6fd 8c31 4451 1337 dff0 3fb9 48a2 43b9
00000170: cf1a eb37 0b7e e0b0 4db7 ccb5 8435 8abb
00000180: 1f54 f334 93d9 14ba 065d ab3a 9ff5 763a
00000190: b077 97b8 a8e7 013a fe05 8b3a b97a c631
000001a0: f8ce a4bd 07a5 4d39 32d1 09b9 0065 e1bc
000001b0: 75dd 39ad a47d fab4 7eb9 e0b6 eb2f 4dbc
000001c0: 4ea8 43b7 8941 b9b9 0c09 3f3c e5e6 b9ba
000001d0: 870a 71ba 5f14 e7b9 67db c137 296d 80ba
000001e0: 932b 9db8 c056 0233 95e5 a1b8 8a2c 543d
000001f0: f8f6 d334 828c fab3 6320 feb8 844e 89bc
00000200: 8a8c 78b7 32c6 293b 9acf 0dba 19fc 3daf
00000210: fa09 5e3c a3e1 78a6 444a 33b9 4736 eeb9
00000220: 68e6 9235 307c 47bb d9d3 dcb7 56fc 95bc
00000230: 5235 1dbc 2c6a 1d3c 8015 70bb cd47 23ba
00000240: ccd1 a1b8 7207 16b7 ca54 42ba ee62 0439
00000250: b483 cd37 b9c9 01bd 1aab d7b8 f88a 3ab8
00000260: fd10 dfb7 607d 4dba e800 d638 acaa 663a
00000270: b630 b43a 484f 9834 94b9 b9b2 1ff0 fe3d
00000280: 7a40 dbb0 01c2 72bc 62f5 c33b 7fc8 5f35
00000290: 549b 5ebc e76e 5a39 2204 fe3a 4120 4fb9
000002a0: 47e7 86bb 4137 f6b2 fe2e 0fbd bb32 9338
000002b0: c1c9 223b 4162 17ba 8aa6 cdb7 f0b4 2432
000002c0: d80a 173a d1f3 f328 8688 a7bc 891b 2aba
000002d0: a42c 3c37 85f2 f7b8 d83b 883b f3f6 2b38
000002e0: 8005 4eae c2bc 1738 d4f3 b6b7 d599 da39
000002f0: 94b4 5237 75f6 2b3a b882 2c38 48a0 6f3d
1.3931098e-06 -7.0028335e-07 -0.0023824943 2.728275e-05 -0.00029532146 0.0020330602 1.6594561e-09 0.014439808
0.0006769283 5.7909045e-07 0.010029424 -0.0011944721 -5.4863736e-05 -0.06926903 4.0520308e-07 -0.00016055885
-0.0041049155 -0.00027670592 -6.989905e-05 0.00037180533 -1.562926e-05 -2.9879739e-06 -0.00082358404 0.00086983386
-0.011035025 -0.00086997065 6.4924654e-07 -0.02937521 -0.001316204 0.00053779385 -0.00014394286 -4.9154238e-05
-0.00053817645 -0.002527664 -0.009439256 -0.000906697 0.022651538 2.1244432e-05 6.679863e-07 -0.0005040408
-0.0014432129 0.007368266 -0.0015651018 -8.238963e-31 -0.0010746261 0.005875983 0.04164655 -1.9583943e-06
1.4155368e-05 0.0002043539 0.01045995 0.001126567 0.011541931 0.043763094 0.08106386 0.000119340744
1.4883489e-07 7.464187e-07 -0.031390686 -0.00021356197 0.00013209725 -3.3851164e-05 -0.00077387743 -0.0016392276
1.4320388e-08 0.07688846 -5.981983e-13 -6.9388654e-05 0.03199277 -0.0063851485 -0.0019416633 -0.015005903
-0.0015640153 9.572756e-06 0.00010967604 0.00062197505 -0.015937613 -0.00024572664 -0.017213453 -0.0043064826
-5.1093544e-08 3.1219017e-08 0.002705768 -0.0027798484 -5.9045822e-05 -6.907586e-05 -2.0656284e-08 -4.215569e-05
4.103401e-09 8.780804e-06 -0.00018304911 -0.00018657104 2.8026667e-05 -1.6333969e-09 -1.5252532e-06 -0.0042178053
4.5323483e-07 -0.0005678173 0.0013073988 0.00094207557 -7.2225346e-05 0.0004955479 0.0010606644 5.7765104e-09
-0.08047289 0.00019611801 -0.0001314327 -0.02751398 -1.0565206e-11 -4.6657544e-07 -6.6973143e-06 -0.012523632
-1.1662092e-05 -0.00035334777 0.011659872 -0.0014183192 -0.0009194989 -0.0004407493 2.310956e-05 -0.0009798157
-7.49446e-05 3.0346882e-08 -7.719841e-05 0.05180029 3.9481506e-07 -1.16670904e-07 -0.00012117696 -0.016761072
-1.4814674e-05 0.0025905487 -0.0005409658 -1.7279013e-10 0.013552183 -8.634808e-16 -0.00017098436 -0.00045435337
1.0944905e-06 -0.0030439012 -2.6324693e-05 -0.0183088 -0.009595232 0.009607833 -0.0036633909 -0.00062286557
-7.716156e-05 -8.94243e-06 -0.0007413147 0.00012625355 2.4499233e-05 -0.03168652 -0.00010283869 -4.447528e-05
-2.6591582e-05 -0.0007838812 0.00010204484 0.0008799236 0.0013747427 2.836989e-07 -2.1621226e-08 0.12448143
-1.5952673e-09 -0.014816762 0.0059801796 8.3365734e-07 -0.013586838 0.00020831414 0.0019379894 -0.00019753074
-0.004116926 -2.8663296e-08 -0.034956925 7.0189555e-05 0.0024839493 -0.0005774834 -2.4515455e-05 9.587197e-09
0.0005761809 2.7084158e-14 -0.020450842 -0.00064890884 1.1216067e-05 -0.000118230506 0.0041575246 4.0999566e-05
-4.6843862e-11 3.6177e-05 -2.1809632e-05 0.00041694814 1.25590195e-05 0.0006559857 4.1129737e-05 0.058502465

layers.5.weight f4 [10, 192]
00000000: 3947 df37 816c 80b6 1943 9b3b dea8 f4ba
00000010: 2e7a f53a 9967 0a3b 4dfe c7b2 27ab 5bbd
00000020: 2048 3f3a 42fb 8c33 9ad1 37bc 1d61 673c
00000030: ec93 9cb9 2e59 f8bd dc77 5cb9 3a54 ea39
00000040: 4adc aeb9 0f83 a139 f057 cc39 db65 0539
00000050: 903c d3b7 5759 ff36 f466 833b f727 4f39
00000060: 2228 1ebb f068 b238 f644 3736 7062 bb3e
00000070: abc2 6f3d ee06 68ba 57e1 89bb d99f 4dba
00000080: a62a d03b ddc8 87bb 1bbd 12bd 9429 2e3a
00000090: 3774 d23d 6dd3 7639 7582 edb7 8a33 203d
000000a0: 1b9e 83bb 2061 1a3d c3cc 0ebb 78eb 0f28
000000b0: 8194 a23a 7fca 0bbd 672d 6b3c ac63 2637
000000c0: 8968 78ba 6622 b4ba f738 a7bd 2649 be3b
000000d0: 8aba 77bd 4a44 d2be ecc4 85be 017d 993b
000000e0: c7a4 27b9 44b5 ac37 5264 da3d f094 153b
000000f0: 8b94 c236 6871 08b6 e743 a835 08b3 60ba
00000100: 104c 3d39 a326 633e 0ccd b8a6 9021 4db6
00000110: 9679 8dbc 9cc2 3e3b b5c6 3fbd a92e fbbd
00000120: c161 323c f902 9db7 2386 59bc cad7 a3bb
00000130: 8d68 d5bd ffcc a43a bb71 c5bc aaf1 ef3a
00000140: 9604 1631 f780 40b7 8ea7 813c 6cf5 9c3c
00000150: 26f3 2139 43f5 9ebb ae2b 58b3 e8a0 cc37
00000160: 2f75 aab3 4dda 2d3a 4194 d6bb 3d9f 3939
00000170: 9b86 ad38 5ec9 b3b1 cf06 8eb4 de93 b7ba
00000180: 4827 c73a 0dcd bebb 7461 52bb 26ec 803c
00000190: 97be e83c b06b e23c 37c2 f13b e4e1 90b4
000001a0: 7596 0e3d 1cbd a73a 73d5 a83b 3ffd 713d
000001b0: 2132 82ac 9c60 0a36 7004 72b7 64fa 3b3d
000001c0: c933 5339 5092 71bb bfe6 c03d f48a 763a
000001d0: c5c0 a73c 71ec 04bc 3868 dfb7 45a9 4839
000001e0: c909 59b8 c151 35b4 b835 53ba 8b51 c1bc
000001f0: 0e14 cdb7 f725 94aa 89df 1eba 41dd 5d3d
00000200: f438 d338 a7c8 6fbc 1223 edba 2360 0b36
00000210: 4d08 debd b603 07a6 06e1 02bd bef2 c138
00000220: c8cc 39ba 68a2 113d 92e6 d03b 6870 863c
00000230: b929 58bb e2ec 73be 6245 313b 4c14 963a
00000240: af37 8839 1104 41b5 9e32 93bb bab9 64b8
00000250: 4d92 7fb9 9054 1f3f f5d9 e73b 6748 2ebb
00000260: d404 4836 7cbb 293d 6376 3e38 9325 743b
00000270: a45c 643c eaac 7436 9e7a d532 5ef3 8c3d
00000280: d786 50b1 d892 65bb be69 56bc bde9 0c3a
00000290: a934 3ebd 2175 b03a ab5e 16bc 8286 b03a
000002a0: c89f 1a3b a3de f0b2 b95a 75bd 487b ecb7
000002b0: 22f3 64ba 0f35 ffba 7003 1d39 223e 3ab1
000002c0: 6e8b 34ba fbcf ca2a a705 8bbc 7d9b d4ba
000002d0: 2320 bcbb f23d 54ba b08c bebc 96f4 833a
000002e0: 9eed 8ba9 4c23 22bc f2c7 bc3c b171 0fbb
000002f0: 4683 85b9 109e 26bb 93c6 633a 915b ccbc
00000300: 4bba 05b7 a070 5bb4 7011 abba 7841 4abb
00000310: f9a9 67bc f721 0f3b 9d07 2631 e1e4 46bd
00000320: 3194 8e3a 18cb 3e32 a388 e0bb 1ab9 97bc
00000330: 04cb a53a 2453 1a3f ffdb 9e38 f889 3fb8
00000340: 6076 0dba 322f 02ba e88d d8b8 26be 8139
00000350: e5cd 2436 4667 1e33 f794 6739 20a0 9439
00000360: c353 e2bd 6954 b4bb dc1d ccb3 be8f 953e
00000370: 843d a0bc 08e6 14ba 83cf 553b f31b e9b9
00000380: f79a 80ba 1186 90bb bf1d ecbd 664b d139
00000390: 8722 8bbe 4330 5b39 5b16 81b7 2dfd e0bc
000003a0: ad7f fb3a c276 d33c 9e23 51bb e286 800c
000003b0: 2496 caba bad7 183c 73f2 c9bd 75fb 0137
000003c0: 1b1c 0037 2ca0 723a a71d 903d 1b38 02bc
000003d0: 7ca1 5ebd cf5f b4be 2db5 88be c0da e339
000003e0: b355 a138 2d14 4db2 7fa9 88be 31eb 133b
000003f0: 6d6e c337 f78b b037 e2c1 f3b9 523f 0dbc
2.6616837e-05 -3.827329e-06 0.0047382233 -0.0018666049 0.0018728429 0.0021118878 -2.3282292e-08 -0.05363002
0.0007296819 6.5649616e-08 -0.0112194065 0.014122275 -0.0002986485 -0.12126385 -0.00021025486 0.00044694712
-0.00033351994 0.0003080596 0.0003897543 0.00012721813 -2.5181362e-05 7.6099927e-06 0.0040100757 0.00019755946
-0.0024132808 8.5072475e-05 2.7309266e-06 0.3659854 0.05853526 -0.000885113 -0.004207771 -0.00078439486
0.0063527403 -0.004143818 -0.035824876 0.0006643769 0.102760725 0.0002353915 -2.831335e-05 0.03911165
-0.0040166504 0.037690282 -0.0021789528 7.989154e-15 0.0012403877 -0.034128662 0.0143540865 9.917578e-06
-0.0009476026 -0.0013743162 -0.08165162 0.00580706 -0.060480632 -0.41067725 -0.26126802 0.004684091
-0.00015987745 2.0588406e-05 0.10663666 0.002282437 5.798943e-06 -2.033159e-06 1.2536738e-06 -0.00085715996
0.0001805278 0.22182707 -1.2823143e-15 -3.0566916e-06 -0.01726989 0.0029107695 -0.04682036 -0.12264759
0.010887564 -1.8717243e-05 -0.01327661 -0.0050000893 -0.10420332 0.0012573301 -0.024102082 0.0018306274
2.183048e-09 -1.1474119e-05 0.015826967 0.019159995 0.00015444736 -0.004851015 -5.0331145e-08 2.4393623e-05
-7.9375575e-08 0.00066319556 -0.006548435 0.00017702296 8.274355e-05 -5.2324785e-09 -2.6454515e-07 -0.001400586
0.0015194202 -0.005822784 -0.0032101544 0.015737604 0.028411193 0.02763924 0.0073778885 -2.6986447e-07
0.034811456 0.0012797448 0.0051523983 0.059079405 -3.7003877e-12 2.0619837e-06 -1.4425357e-05 0.045893088
0.0002014182 -0.003686089 0.09419011 0.0009404861 0.020477662 -0.008113013 -2.6632202e-05 0.00019136544
-5.1745945e-05 -1.688668e-07 -0.0008057016 -0.023598453 -2.4447243e-05 -2.6316425e-13 -0.0006060531 0.054166082
0.000100718724 -0.014635242 -0.0018092117 2.0768573e-06 -0.10841427 -4.6842563e-16 -0.03195288 9.2481714e-05
-0.0007087705 0.035555273 0.0063751424 0.016411021 -0.0032983853 -0.23820832 0.0027049412 0.0011450141
0.0002598143 -7.190402e-07 -0.004492118 -5.4532407e-05 -0.00024373196 0.6223841 0.007075543 -0.0026593448
2.9805133e-06 0.041438565 4.5409786e-05 0.0037253841 0.013938103 3.6459483e-06 2.4852223e-08 0.06882356
-3.0344631e-09 -0.0035030153 -0.013086734 0.0005375406 -0.04643694 0.0013462642 -0.009177844 0.0013467821
0.0023593772 -2.804092e-08 -0.059900973 -2.81908e-05 -0.00087337394 -0.0019470769 0.00014973967 -2.710188e-09
-0.0006887232 3.6026724e-13 -0.016970469 -0.0016220656 -0.0057411357 -0.0008096389 -0.023260444 0.0010067399
-6.21406e-14 -0.009896111 0.02304456 -0.0021887834 -0.00025465543 -0.0025423802 0.00086889527 -0.024946006
-7.9707925e-06 -2.0436937e-07 -0.0013051461 -0.0030861776 -0.014139646 0.0021840313 2.4160507e-09 -0.04855812
0.0010877905 1.1105634e-08 -0.006852226 -0.01852088 0.0012649004 0.6028311 7.5750046e-05 -4.5666442e-05
-0.00053963624 -0.0004966139 -0.00010326115 0.0002474647 2.455775e-06 3.688117e-08 0.0002208537 0.00028348062
-0.110511325 -0.0055032265 -9.504922e-08 0.2921123 -0.019560583 -0.0005680029 0.0032624907 -0.00044462047
-0.0009811808 -0.004410513 -0.11529111 0.00039919763 -0.2717478 0.00020903446 -1.5388408e-05 -0.027464474
0.0019187831 0.025813464 -0.0031912099 1.9802702e-31 -0.0015456122 0.009328777 -0.09860697 7.747546e-06
7.635938e-06 0.0009255435 0.07036906 -0.007947947 -0.054353222 -0.35229346 -0.26700726 0.00043459795
7.693041e-05 -1.1937158e-08 -0.26691815 0.0022570605 2.3297232e-05 2.1046011e-05 -0.00046493026 -0.008621054

layers.5.bias f4 [10]
00000000: bb9d 19bd 3a25 03be 9fac 073e dc27 af3d
00000010: 7afb 1cbd acdb b8bd 7ee8 1bbd a73f 803c
00000020: a66f 173d 0a4f 843d
-0.03750394 -0.1280717 0.13249443 0.085525244 -0.038325764 -0.09026274 -0.03806352 0.015655352
0.03697171 0.06460388
